Autoencoder_vae_mnist.pth (torch_old, 224685 bytes, 49 tensors)

conv1_down.0.weight f4 [10, 1, 3, 3]
00000000: 1e89 7f3e 94df 6fbe 1011 9bbd 9a3d acbd
00000010: 01dd 283c 5dcd 2cbe 1e5a 053e d0a2 d3bd
00000020: d56d 06be e75e 9b3d 90f4 9d3d 29f2 ec3d
00000030: d65e 8a3e d280 bc3d b9b2 81be 5c7b c63e
00000040: 6307 13bd 7d20 943e 2acb dabc 4161 6abd
00000050: 22f0 96bc 4d98 0e3e bb8e 14be 04df 5b3e
00000060: a748 593e 2579 863e e0ad 773e 6602 833d
00000070: 04e7 51be 1676 22bd ffde 953e a184 a13d
00000080: 499a 17be 2aae 2dbe 9beb b2bd 20a6 f53d
00000090: 9106 43be d97c 313e 8098 7fbe 8574 5b3e
000000a0: 3288 473e b4fa 843e 8fb3 c83e 0415 8a3d
000000b0: 2ab7 ee3c ff9f 3b3e edc5 01bd 262b af3e
000000c0: 5b78 6c3d 9047 1c3c 9949 4c3e a5ec 59bd
000000d0: 1c51 393b ab38 dd3d b3bb 1f3d bb6a 8abd
000000e0: e653 b73e ca04 77bd 6b51 293e f145 003e
000000f0: 812d f9bb e3c5 573e 6aae df3d 331b a33e
00000100: ae7f 153d 6659 fa3d f10d 093e 91b6 01bd
00000110: 47c0 33be ce99 113e b41c 0d3e 9fb0 1cbe
00000120: 1267 b4be 028d 883c 9f53 9cbe ad71 05be
00000130: 6e63 c63d 5e73 023d 210d 95bd 525e 8cbe
00000140: 083b 11be 7283 8b3e 1a5e b13e 13d5 8e3e
00000150: b642 ee3d 6b47 ef3d ffeb 7ebd c1b3 88be
00000160: 7970 303e 5394 d4bd
0.2495465 -0.23425132 -0.07571614 -0.08410187 0.010306598 -0.16875215 0.13022658 -0.103337884
-0.13127835 0.075864606 0.07712662 0.11569626 0.2702548 0.09204258 -0.25331667 0.3876599
-0.035895716 0.28931037 -0.026708204 -0.057221655 -0.018425051 0.13925286 -0.14507572 0.21471792
0.21219121 0.262643 0.24187422 0.06396942 -0.20498282 -0.039663397 0.29271695 0.07886625
-0.14804949 -0.1696097 -0.087363444 0.119945765 -0.19045474 0.17332782 -0.24960518 0.21431167
0.19485548 0.2597252 0.39199492 0.0674229 0.029140074 0.18322752 -0.031682897 0.34212607
0.057731967 0.009538546 0.1994995 -0.053204197 0.0028277105 0.10801824 0.038997363 -0.067586385
0.35806197 -0.0603073 0.16534965 0.1252668 -0.0076043014 0.21071582 0.10921939 0.3185669
0.036498718 0.12224083 0.13384224 -0.03166825 -0.17553817 0.14218828 0.1378048 -0.1530175
-0.35234886 0.0166688 -0.30532548 -0.13031645 0.096869335 0.031848304 -0.07277895 -0.2741571
-0.14182675 0.27248722 0.34642106 0.27896938 0.11633818 0.11683544 -0.062236782 -0.2669964
0.17230405 -0.10379853

conv1_down.0.bias f4 [10]
00000000: 0156 1ebe c85b 9fbe 7698 d2bc 779c 53be
00000010: ec0d 74be 8899 503e 5080 7e3e 38df a8be
00000020: ff5e 783e 02ca 4c3e
-0.15462495 -0.3112471 -0.025707465 -0.20665155 -0.23833436 0.20371068 0.24853635 -0.32982802
0.24254988 0.19998935

conv1_down.1.weight f4 [10]
00000000: 15b2 923f 65be 6f3f d4e8 6b3f 5fbf 603f
00000010: bd10 673f 93a5 763f 7343 743f eed3 793f
00000020: b82b 933f df34 703f
1.1460596 0.93649894 0.9215214 0.8779201 0.90259916 0.96346396 0.9541542 0.97589004
1.1497717 0.93830675

conv1_down.1.bias f4 [10]
00000000: 9679 4e3e f825 7b3d d2e9 eb3e 883e 15be
00000010: 0e22 8b3e 1ea7 bb3e c013 bb3e 2b48 663e
00000020: 058a 653e 1ba7 a53e
0.20163569 0.061315507 0.46076828 -0.14574635 0.2717442 0.36650938 0.36538506 0.22488467
0.22415932 0.32354054

conv1_down.1.running_mean f4 [10]
00000000: 052f 55be e1fc 35be d38a a83d 1756 60be
00000010: 09fa f8bd 9442 9f3e 24d1 b93e b936 85be
00000020: fa20 c03d 98e2 a03e
-0.20818718 -0.17772247 0.082296036 -0.2190784 -0.121570654 0.31105483 0.36292374 -0.26018313
0.0938129 0.31422877

conv1_down.1.running_var f4 [10]
00000000: 330e a63c be35 923d 7ab6 583d e4c6 953b
00000010: 5237 913d e3a4 3c3d 1ba6 6c3d 3525 ff3c
00000020: d6f9 9b3d 0567 913d
0.020270443 0.07139157 0.0529084 0.0045708288 0.0709063 0.046055686 0.057775598 0.031145671
0.07616012 0.070997275

conv2_down.0.weight f4 [20, 10, 3, 3]
00000000: b621 0ebe 888e 8fbd cbca a6bd 4e9c ff3c
00000010: 9eb9 25bd a7a3 a0bd a6f3 9ebd 3c63 bc3c
00000020: dc23 9cbd bde2 b0bc 0797 f33c caae 1ebd
00000030: fb56 91bd 9230 4ebd 5a92 3c3d a700 0d3c
00000040: f11d cfbd 0903 57bd 1c31 ac3d c89e c0bd
00000050: 03d2 46bc 4f80 12bd 4524 a03d e531 25bd
00000060: 5f6c 68bb c0c3 e73c 6082 783d 0c36 b6bd
00000070: dbd3 a33c 4288 3c3d 33ca 1fbd 143d 30bd
00000080: d631 7a3d e099 acbd 3c91 78bc b9b5 ab3b
00000090: 50dc 04be afc6 7c3c cdc6 823d f236 353c
000000a0: 3dd1 07bd 03fb 043e 5901 50bd 8399 753a
000000b0: d7e7 53bd f32b c53c 2a8e 3d3d 561d f83d
000000c0: c0e7 003c c07d 9abd 8a2f bf3d 4668 90bd
000000d0: 9a9f 79bc bba4 b83c 6eff a4bd 96e0 b93d
000000e0: f68a ae3d 7372 1fbd 2374 d53d efb9 0e3d
000000f0: f853 be3d 0f86 bebd 435d 78bd 1cfd 623c
00000100: 79cb 8fbd 1a30 98bd e3dc 9bbd 0be7 a23d
00000110: 4fb0 5dbd 6e82 3bbd fd00 aa3d 1a0d a53d
00000120: b6fd 8f3d e8f9 aebd fe85 8abe 4d3f dd3d
00000130: 8728 723d 05d9 22be 51d7 243e 71c6 0339
00000140: 3887 45bc 5abf 13bd 5f70 8dbd 366f ea3d
00000150: 1911 a03c 0040 1d3c a311 3d3d 9b4d 83bd
00000160: 075e 52bd d8ad 13ba 6110 633d d26e 423d
00000170: d605 d13d 4268 81bd 305f efbd 1136 3abc
00000180: 505f f1bd 96fc 02be 5254 8abd 89ff 49bd
00000190: 4f72 f83c 5569 6c3c ae62 cf3d 1d59 e63d
000001a0: 63ee a5bd 1884 a23d 3bce 35bc d31c 87bd
000001b0: 8900 183b 5b36 903c 7412 0c3c 764f 2a3e
000001c0: 32b3 3f3d cad1 403d b4b4 69bc 7935 8c3d
000001d0: f9c2 563d 2f2b 15bd 2b76 e93c 6d80 11bd
000001e0: 0d23 4b3a 7ee9 0abd fe8c 28bd cef2 133c
000001f0: 133d cbb9 a215 70bc 9daf fa3c a436 4d3c
00000200: 79cf c63b 0a30 e23d e4dd b1bc aacd 103d
00000210: 3912 0d3e 6296 04bd 57f8 5f3d 9c38 a4bc
00000220: e10b 323c f98b a4bd 51b4 f03d b1d8 803d
00000230: 8fb2 d13c 95dd cf3d 16e4 cb3d 3071 833b
00000240: fa4b 9cbd f3c1 c5bd c5d3 08be 6ba5 72bd
00000250: 7c85 1a3d f39b 92bd dfff 223c 6cf7 0f3d
00000260: ec8f bbbd ad64 0f3c e33f dabc 770f 813d
00000270: 9c14 20bd 4c01 afbd 8f4a cfbc 18b7 fe3d
00000280: e026 a7bd 0ae8 7c3d 8d86 703d 06ee 7a3d
00000290: 4d7a 07bd 0ea2 97bc a594 7e3c 7e46 dd3d
000002a0: 1f42 2dbe 1a44 fe3c 7bae 01bd c7a7 ad3d
000002b0: 3368 9b39 3bd1 89bd 44f9 783d 2adb ba3d
000002c0: 2995 55bd a0f9 68bd 1eb7 5d3d 5322 163d
000002d0: 1978 b0bd a7c3 403d 6511 b93c 4a63 d0bd
000002e0: 166b 40bd 1c5c c2bd 6db8 51be a805 8a3c
000002f0: a132 903c 6301 55bd 265d b7bc 2efb eb3b
00000300: 454d 55bd 28f3 27bd 8b89 b1bd 4ac2 d63a
00000310: 4b3f 6d3d bd95 b4bd 88e6 adbd 30b2 c43d
00000320: 4692 43bc 9acd a23d 0e07 b83d 4d06 c1bb
00000330: 4520 ca3d 56a6 b73d 18dd 0e3d 1274 a7bc
00000340: 7d2f 123d 80d3 613d 7fc9 1fbc 2a71 45bd
00000350: 4a45 983d eec0 ad3d 6773 083e 4444 cb3c
00000360: 4763 d13d 0a12 cabc a5ed 0c3d 4db5 f13c
00000370: 12f1 6fbd 55d7 44bd a45c fb3c 6198 44bd
00000380: c621 afbc a9c7 ddbb 48e5 713a 4041 28bd
00000390: fe87 8e3d 072c 0b3d 9393 143d 20d1 94bc
000003a0: 9da4 ac3d 5888 4cbd 77d4 8dbd 2746 173d
000003b0: 1803 193d 4bbf 8b3c 47a7 2b3d 5074 c83d
000003c0: 7eeb 9c3d b1d3 92bd 080e e63d 5059 90bd
000003d0: 29b0 8a3d 41aa c439 5626 d4bd 9ef3 5fbd
000003e0: c940 273d f620 ef3c 6779 f63d 08a1 013c
000003f0: 2127 40bd c0e9 f9bd 848a 13be 2cf3 a8bc
-0.13880047 -0.070096076 -0.081441484 0.031202462 -0.04046022 -0.07843714 -0.07761316 0.022996537
-0.07624027 -0.021592492 0.029735101 -0.03874091 -0.07096668 -0.05033929 0.04603801 0.008606113
-0.10113133 -0.05249313 0.08407804 -0.09405285 -0.012135032 -0.035766896 0.07819418 -0.040330786
-0.0035464985 0.028291583 0.06067121 -0.088970274 0.019998481 0.046028383 -0.03901119 -0.043027
0.061082684 -0.08427787 -0.015171345 0.005240169 -0.12974668 0.015428229 0.063855745 0.011060463
-0.03315853 0.12986378 -0.050782535 0.00093688833 -0.05173477 0.024068808 0.046278156 0.121149704
0.0078677535 -0.07543516 0.09335239 -0.070511386 -0.015235806 0.022539487 -0.08056532 0.090760395
0.085225984 -0.038927507 0.10422542 0.03484529 0.092933595 -0.093029134 -0.060635816 0.013854291
-0.07021231 -0.0743105 -0.0761049 0.07954224 -0.05412322 -0.045778684 0.0830097 0.080591395
0.070308134 -0.085437596 -0.27055353 0.10803089 0.05912068 -0.15903099 0.16097762 0.00012567059
-0.012056164 -0.03607116 -0.06906199 0.11446993 0.019539403 0.009597778 0.046159398 -0.064112864
-0.051359203 -0.000563351 0.055435542 0.047468968 0.10206191 -0.06318714 -0.116880774 -0.0113654295
-0.117857575 -0.12791666 -0.06754364 -0.049315963 0.030327944 0.01442941 0.101262435 0.11247466
-0.08102109 0.07935351 -0.011096532 -0.06597295 0.0023193678 0.017604044 0.008549321 0.16631874
0.046801753 0.04707507 -0.014264274 0.068461366 0.052432034 -0.036418136 0.02849873 -0.035522867
0.00077490584 -0.03391408 -0.041150086 0.009030057 -0.0003876468 -0.014653595 0.030601317 0.012525234
0.006067213 0.11044319 -0.021712251 0.035352387 0.13776483 -0.03236998 0.054680195 -0.020046525
0.01086709 -0.0803451 0.117531426 0.062913306 0.025597839 0.10149685 0.09955613 0.0040112957
-0.07631679 -0.096561335 -0.13362034 -0.059239786 0.037724957 -0.07158651 0.0099487 0.03514807
-0.0915831 0.00875203 -0.026641792 0.06301778 -0.039082155 -0.08545169 -0.025304107 0.12437266
-0.08161712 0.061744727 0.058722068 0.061262153 -0.03307562 -0.01850989 0.015538369 0.10804461
-0.16919754 0.031038333 -0.03166054 0.084792666 0.00029641538 -0.06729361 0.060784593 0.091238335
-0.052144203 -0.056878686 0.054129712 0.036653828 -0.08616657 0.04706159 0.022591302 -0.10175188
-0.046977125 -0.09490225 -0.20480509 0.0168484 0.017602267 -0.052003276 -0.022383284 0.007201574
-0.052075643 -0.041003376 -0.08668812 0.0016384807 0.05792169 -0.08817623 -0.08491236 0.09604299
-0.01193673 0.07949372 0.089857206 -0.0058906437 0.09869436 0.08967273 0.03487882 -0.020441089
0.03568982 0.055133343 -0.00975263 -0.048203625 0.07435091 0.08484064 0.13325273 0.024812825
0.10224014 -0.024666805 0.034406323 0.029505396 -0.058579512 -0.04805692 0.030683823 -0.047996882
-0.02137841 -0.006768186 0.0009227586 -0.041077852 0.06959532 0.033977535 0.03627355 -0.018166125
0.08429835 -0.049934715 -0.0692529 0.036932137 0.037356466 0.017058989 0.041907575 0.0978781
0.07662104 -0.07169283 0.11233145 -0.07048285 0.06771881 0.00037510882 -0.103588745 -0.05467569
0.04083327 0.029190522 0.120348744 0.007911928 -0.046912316 -0.122027874 -0.14408308 -0.020623766

conv2_down.0.bias f4 [20]
00000000: 62a4 44bd 3f09 a9bd 587f b43d 61c5 dabc
00000010: b64b debb 48c6 b33d 9ee0 cd3d 88f9 8d3b
00000020: 1e93 4bbd 2a20 82bc 95b8 393d 2a94 f8bd
00000030: e549 e6bc 551d cebd 75f9 eb3d 9a8d 133d
00000040: 2266 d43d 988c 67bd be8a 823b deb9 71bc
-0.04800833 -0.08253717 0.088133514 -0.026705446 -0.006783928 0.087780535 0.10052608 0.004332725
-0.04970085 -0.015884478 0.045342047 -0.12137635 -0.028111408 -0.100641884 0.115221895 0.036023714
0.10371043 -0.056530565 0.0039838245 -0.014753787

conv2_down.1.weight f4 [20]
00000000: dc14 833f 1b10 753f 6ee7 7d3f 6c3d 803f
00000010: 857c 843f a175 6e3f f0f3 7d3f 8e98 793f
00000020: cf4e 823f 1a02 7e3f 646f 813f ab7d 9e3f
00000030: 851f 743f fede 733f b01d 7f3f 8262 793f
00000040: 198a 6f3f 0a17 703f 4264 933f c385 7e3f
1.0240741 0.957277 0.9918126 1.0018744 1.03505 0.9314824 0.99200344 0.97498405
1.01803 0.99221957 1.0112119 1.2382101 0.95360595 0.95262134 0.99654675 0.97415936
0.93570095 0.93785155 1.1514971 0.99422854

conv2_down.1.bias f4 [20]
00000000: 3676 053e 0cc9 1d3e 67e4 293e dd0d dd3c
00000010: d294 b23d b02d 263e 9472 46bd 058c 8a3e
00000020: 18fa ab3c dcb1 313d 63e6 bebd 45a4 403e
00000030: 16e6 4d3e ef9b f13d e258 af3d 9567 ce3d
00000040: 0a91 0f3e 3056 783e dbe7 a73b 56d7 0f3d
0.13033375 0.15408725 0.16591035 0.02698415 0.087197915 0.16228366 -0.048449114 0.2705995
0.020993277 0.04338251 -0.093212865 0.18812664 0.20107302 0.1179732 0.08561875 0.100783505
0.14020172 0.24251628 0.005124075 0.03511747

conv2_down.1.running_mean f4 [20]
00000000: 3938 cabe 667d 393e 9536 afbe 8002 ddbe
00000010: b73f 17bf 075c 62be 78b8 4a3e 9ce5 0fbf
00000020: c9e1 1dbe 4d0c 713e faee 24bf 1b9e 8fbe
00000030: db29 24bf c704 7bbd b5bb b83d a778 1e3f
00000040: 14c0 a33e 3516 42bf ebe9 573e d19d 433d
-0.3949602 0.18114242 -0.3422133 -0.4316597 -0.59081596 -0.22105418 0.19796932 -0.5620973
-0.15418161 0.23539849 -0.6442715 -0.28050312 -0.64126366 -0.061283853 0.09020177 0.6190285
0.3198248 -0.75815135 0.21085326 0.047757927

conv2_down.1.running_var f4 [20]
00000000: 507f df3e 0c5a 3a3f 0efe 6d3f d020 8e3e
00000010: e456 a33e 681f b13f d769 063f 7ae2 3f3e
00000020: b470 883e eded 963e 8cde a23e bb6e d23e
00000030: cab8 eb3d bee8 fd3e 342f 2b3f 15db 693f
00000040: 130f 2e3f 60df 213e 22cc ab3e 970b dc3e
0.4365182 0.7279365 0.9296578 0.2775941 0.3190223 1.383771 0.5250525 0.18738738
0.26648486 0.29478398 0.31810415 0.41100106 0.11509855 0.4959163 0.668689 0.9134992
0.6799175 0.15807867 0.33554178 0.42977592

conv3_down.0.weight f4 [40, 20, 3, 3]
00000000: 4196 a93d e166 363d b611 583d 2155 f6bc
00000010: fa46 50bc 8952 e5bc 3c41 f2bb d35f 87bd
00000020: d441 1abe 3dbc 2e3d a74f b83c 0f26 ccbb
00000030: 3a42 5a3d af2f f93b 2da7 2a3d 42f1 75bc
00000040: 1692 fd3c 30ce 8cbc 6eaf 27bc 40bd f13b
00000050: 9ea1 203d 5471 bf3c 84f7 32bd bac8 783d
00000060: b474 dcbc a35b de3c 8930 893d 6d06 c7bc
00000070: d0fc ccbc e85d cfbc e52e 71bb fa81 5f3c
00000080: 297a 9abd 7e54 7c3d 8ca0 28bd 1fbf 43be
00000090: 979a 0abc 08bd dfbb c53b ca3c 3c90 16bd
000000a0: b9c0 42bd 27f3 1abd b734 edbc 7933 9cbc
000000b0: cf1c 0ebc 96aa 9d3a d631 51bc 79a7 293d
000000c0: f48e d33d 4b17 773c 7e44 44bc ff33 6c3d
000000d0: f3a1 b3bc 1dd9 703b f0f7 b7bb a7bc 1a3d
000000e0: 995c cb3d bd17 1bbb e80a 20bc ed30 603d
000000f0: ce3e 923c ccb5 cfbc 93e9 153c fd8d 50bc
00000100: 9dfb daba ba76 ec3c 6bd5 4bbd efad 63bd
00000110: d36f 72bd 2cf8 dbbc 5264 633d 2577 fbbb
00000120: 94f0 523b 69a6 883d 1ebb 763d 571a 1abd
00000130: 4da7 13bd 0ff5 383d 2ae7 73bc 4f59 65bc
00000140: 9bca 803c 3e4d 5f3c 7a96 9a3d cff1 e13d
00000150: af1e f6bc 7208 ce3c 1f95 053d 070c 07bc
00000160: 9f7f 8d3c 34a4 06bd a98a a53d 1447 b6bc
00000170: 6ce5 353a 5ca7 0d3d b5e9 89bd b643 bf3d
00000180: aa38 69bc 5aaf 08bd 9ef9 a4bc 385f e2bd
00000190: b1be aebd 2936 913c a1de dabd 0bff f4bd
000001a0: 91eb e7bb bc10 e5bd fce4 2abc fb32 0a3c
000001b0: 184f a03d efac 883c 41af 6c3c bf64 b93d
000001c0: 8c2b 21bd 29ee 8e3b be45 723d d82e debb
000001d0: aafa b0bd bd01 a23d 3db0 22bb 2ba3 a4bc
000001e0: bbe7 6b3c 6024 bf3d 4bdc 29bd d1f6 94bc
000001f0: 55c4 4e3d 44c3 5abd f438 ef3c 7bdb f0bb
00000200: 04d0 6e3d 486c 02bd 9977 5dbd c71f 8ebc
00000210: da44 e93b c526 493d 9b01 5bbd 9f2c 803d
00000220: 8e37 f33c fe02 4ebd 9f95 4dbd ba88 cd3c
00000230: af4f 7dbc 8d9c 9bbd 5a00 913c c3b0 8ebc
00000240: acbd 7bbd 9a1f 30bc 0048 27bd fed1 c5bc
00000250: 3a43 dfbb 80ca 5cbd e421 6cbd b039 64bd
00000260: 8b4b bc3c 1ae1 413d 619c a6bc c6da 81bd
00000270: 5fac 3e3d 57d2 993c d487 92bd e476 bbba
00000280: 7401 d1bc 506e b6bd b881 113d fae1 2cbd
00000290: 423a 0cbd 9bea dabb 9e4c 92bd 3dc6 ba3c
000002a0: 4087 c2bc 8702 47bd 611b ffbc 2fa5 1c3d
000002b0: 1d46 433c c752 1a3d 51b5 553d f981 9a3c
000002c0: a4ec b8bc 0366 2c3d 018c a43c 6e1c 233d
000002d0: f4a2 a5bc b68a ee3c 933b 253c 2a24 a83d
000002e0: 8f75 b23b e6d1 713d 9f87 d8b9 dea3 6c3c
000002f0: 6e98 9f3c 5ce7 2ebc 12b7 013d c80e f53c
00000300: 0aa4 b1bc d499 d7bc e5bb 21bd 3b75 60bd
00000310: 9b2e 35bc 3b76 b43a 1831 59bc e565 9bbb
00000320: 5b74 88bb 2dbc 18bd b6a1 023d c77a 7c3b
00000330: 65a4 50bd e20b b1bd ce7e 60bd 7307 7ebd
00000340: 40b4 a6bc 3529 64bd da41 63bd ed69 c9bc
00000350: 35b2 113d 0dfb 613c 9a9e babd 382d 9c3b
00000360: 2e08 043d 2be5 ff3c 5497 303d 5cc8 93bd
00000370: 7fe3 69bd fb47 243c 299c 6e3c 143c 1abc
00000380: 111e 303d 7ae0 e9bc 7b16 1bbe 25c0 b7bd
00000390: 58d7 64bd 3d55 1fbd 2945 863d 68cc b63d
000003a0: 0171 3ebd 4e4d 67bc 86a5 d8bc cfe6 afbd
000003b0: 99b2 113d d7a8 7ebd 62be 793b 6ca1 223d
000003c0: edc7 9dbc 5898 5a3d 3b9d 233c 706c 99bc
000003d0: df06 3fbd 3428 80bd 7f96 fd3b 3014 a93d
000003e0: 9707 823b de19 6bbd c2f5 cebd cfdf 20bd
000003f0: 9c20 153c 5ff1 cebd 454d 31bd ca9c 42bd
0.08280612 0.044531707 0.052751265 -0.03006989 -0.012712235 -0.027993457 -0.0073930304 -0.06610074
-0.15064174 0.042659987 0.022498919 -0.006230123 0.053285815 0.0076045613 0.041663337 -0.015011134
0.030953448 -0.017188162 -0.010234697 0.0073772967 0.03921663 0.023369469 -0.04369308 0.060738303
-0.026911117 0.027143305 0.066987105 -0.024295056 -0.025022894 -0.025313333 -0.0036801633 0.013641829
-0.075428315 0.061604016 -0.041168734 -0.19115876 -0.008459709 -0.006827954 0.024686703 -0.036758646
-0.047547076 -0.037829544 -0.0289558 -0.019067513 -0.008673861 0.0012028988 -0.0127682295 0.04141948
0.103300005 0.015081237 -0.01197922 0.057666775 -0.02192781 0.0036750503 -0.0056142733 0.03777757
0.09929771 -0.0023665272 -0.009768225 0.05473416 0.017852213 -0.025355242 0.009149927 -0.012729165
-0.0016707067 0.028865207 -0.049764078 -0.055585798 -0.059188675 -0.026851736 0.055515595 -0.0076741152
0.0032186853 0.06672365 0.060237043 -0.037622776 -0.036048222 0.04515558 -0.014886657 -0.013998344
0.01572161 0.013629256 0.075482324 0.110324495 -0.030043928 0.025150511 0.032612916 -0.008242614
0.017272769 -0.03287144 0.08083088 -0.02225069 0.00069387886 0.034583434 -0.06734029 0.09339087
-0.014234701 -0.033370353 -0.020138558 -0.11053318 -0.08532465 0.01772602 -0.10686994 -0.11962708
-0.0070776423 -0.111848325 -0.010430571 0.008435006 0.07827586 0.016684024 0.014446081 0.09052419
-0.03934817 0.004361887 0.059148543 -0.0067804866 -0.086415604 0.07910488 -0.0024824284 -0.020097336
0.014398511 0.0933311 -0.041469853 -0.018184097 0.050480206 -0.053408876 0.029201962 -0.007350383
0.058303848 -0.031841546 -0.054069135 -0.017349137 0.0071188034 0.04910924 -0.053468328 0.06258511
0.029689576 -0.050295822 -0.050191518 0.02508961 -0.015460893 -0.07598219 0.017700363 -0.01741827
-0.061460182 -0.010749722 -0.04084015 -0.024147984 -0.006813434 -0.053904057 -0.057649508 -0.055719078
0.02298524 0.047333814 -0.02033824 -0.06340556 0.046551105 0.018777056 -0.071548134 -0.00143024
-0.025513388 -0.08907759 0.0355241 -0.042207696 -0.034235246 -0.006680799 -0.0714352 0.022799606
-0.023746133 -0.048586395 -0.031140985 0.03824347 0.011918572 0.0376766 0.05217487 0.018860804
-0.022573777 0.042089473 0.02008629 0.039822035 -0.020219304 0.029118877 0.010085004 0.08210023
0.005446143 0.059038065 -0.00041299776 0.014443366 0.019481864 -0.010675278 0.03166873 0.029914275
-0.021684665 -0.026318468 -0.03948583 -0.0547993 -0.011058475 0.0013768146 -0.013256334 -0.0047423714
-0.0041642613 -0.037288833 0.0318925 0.003852533 -0.05093803 -0.086448446 -0.05480843 -0.062018823
-0.020349622 -0.05570336 -0.055482723 -0.024586642 0.035570342 0.013792765 -0.09112282 0.0047661327
0.032234363 0.031237205 0.043113068 -0.0721595 -0.057101723 0.010026927 0.014563599 -0.009413738
0.042997424 -0.028549422 -0.15145294 -0.089721955 -0.05586943 -0.03889965 0.0655616 0.08925706
-0.046494488 -0.014117552 -0.026446115 -0.08588945 0.035570715 -0.062172737 0.0038107862 0.039704725
-0.019260371 0.053367943 0.009986217 -0.018728465 -0.046637412 -0.06257668 0.007738888 0.082558036
0.00396819 -0.057397716 -0.10105468 -0.03927594 0.009102013 -0.10104632 -0.04328658 -0.047512807

conv3_down.0.bias f4 [40]
00000000: c95a 023e 1977 95bd 6b4f fabc 799a aebd
00000010: 265d 6abd 2ea4 ffbc 655b bebc b959 98bd
00000020: 7283 823d 1e65 4fbc d490 49bd 12fd 773c
00000030: 7758 4bbd 0cc9 4f3c aaa9 bfbd df3e 853d
00000040: 1a42 1ebd a45e 1c3d 5bef 2c3d 9c9d 723d
00000050: ad3c 903b e054 d83c 0be3 c0bd a523 0bbd
00000060: f5cd 46bd 21cc a03c 31b0 f93c a812 84bd
00000070: 1f5a 0f3d 8d3d 0e3d 198d 383c fc74 8dbc
00000080: de71 50bc c534 c23c 1e3b 0e3d 85a0 713d
00000090: 5d46 c1bb 40b4 a03d 85de 1dbc 3cd8 a1bc
0.12729944 -0.07298107 -0.030555448 -0.08525557 -0.05721774 -0.031206217 -0.02323694 -0.07438988
0.063727275 -0.012658386 -0.049210384 0.01513602 -0.049644914 0.012682211 -0.09358533 0.06506132
-0.038637258 0.038176194 0.042220455 0.05923234 0.0044017644 0.026407659 -0.09418305 -0.03396954
-0.04853626 0.019628586 0.030479522 -0.06448871 0.034998056 0.03472667 0.011264109 -0.017267697
-0.012722461 0.023706803 0.034724347 0.058990974 -0.0058982805 0.0784688 -0.009635572 -0.019756429

conv3_down.1.weight f4 [40]
00000000: 114a 6a3f 6bac 783f e0ef 6b3f 2ba5 6c3f
00000010: 6795 713f 0e99 6d3f e766 723f 118f 663f
00000020: a048 693f a9e9 733f 1871 693f 38c3 643f
00000030: 2b86 753f c59d 703f ab19 633f 5c93 603f
00000040: a500 763f 2aec 733f 79d4 6d3f c519 6a3f
00000050: 472d 6e3f ec74 723f 5d92 723f ee74 733f
00000060: 2cf5 793f 627c 5a3f 4dd8 713f 9d4b 663f
00000070: ad4e 713f 3678 6a3f 61d6 6d3f 89a9 6e3f
00000080: 49aa 503f 7aa5 643f 205d 683f 705c 7f3f
00000090: e49e 683f 67d4 5e3f fdb2 653f ecc1 593f
0.91519266 0.9713809 0.92162895 0.92439526 0.94368595 0.9281167 0.94688267 0.9006205
0.9112644 0.9527841 0.9118819 0.8936038 0.9590785 0.9399074 0.8871104 0.8772485
0.96094733 0.9528223 0.9290233 0.9144557 0.9303784 0.9470966 0.9475458 0.95100296
0.9763973 0.85346043 0.94470674 0.89959127 0.94260675 0.9158968 0.9290524 0.9322744
0.81509835 0.89315 0.907671 0.99750423 0.9086745 0.8704285 0.8972624 0.85061526

conv3_down.1.bias f4 [40]
00000000: c54b fe3c 9cc7 90bd a4e6 53be 9611 84bd
00000010: 299e 88bd 4225 713d 4def 7dbd 195b debd
00000020: eb60 6a3c be2e 34bd 38df 35be 2e8b 0cbe
00000030: bafc a2bd 5410 88bd 53da c2bd 875c 46bd
00000040: 0d75 02be 104a 56be 01a9 84bd 4d0c b13d
00000050: f2ea dc3b d8cc d8bd 3591 aebc 87ca d8bd
00000060: 45d7 92bc 9f0a 29bd 84e0 d8bd f791 53be
00000070: 142b 75bc 9630 283a 5222 a9bd a63c 663d
00000080: 9209 07be d99d d3bd 0c1e 9bbd 3f11 19be
00000090: 295e 263d 1137 bbbc 6ba2 34bd db62 c43b
0.03104199 -0.070693225 -0.20693451 -0.06448667 -0.06670792 0.058873422 -0.061995793 -0.10857219
0.014305334 -0.04398989 -0.17760932 -0.13724968 -0.0795836 -0.06643739 -0.09514298 -0.048428085
-0.12739964 -0.2092669 -0.064775474 0.08644924 0.006741875 -0.10585946 -0.021309474 -0.10585504
-0.017924914 -0.041269895 -0.10589698 -0.2066115 -0.014963884 0.0006415931 -0.08258499 0.056210183
-0.13187245 -0.103328414 -0.0757409 -0.14947985 0.040617142 -0.022853406 -0.044100206 0.00599323

conv3_down.1.running_mean f4 [40]
00000000: 5e23 6ebe 7aa5 b4bf 8f80 d0be 8182 8cbf
00000010: 4188 30bf 1b6a 1abe dd52 b1bf 084a c0be
00000020: 995e a83c 799d 5abc 996b 633e f6da d2be
00000030: ae90 cdbf 997f 92bf 3d3f 483e 4259 b33e
00000040: b5dd b2bf a4ba 59bf 3014 8abf 7c62 8c3e
00000050: c730 55bf 1eca afbe 9e0b a0bf c6b3 afbf
00000060: 1511 06bf b942 9ebe abd7 3fbe 09b2 83bf
00000070: 6d68 d73f 2b87 90be fad8 02be 973d eebe
00000080: 9e3e 14bf f7d0 dabd ba6d 193f 1f56 19bf
00000090: 4935 24bf 87b8 cabe 4dd2 19bf dd26 9a3e
-0.23255679 -1.4113 -0.40723082 -1.0977327 -0.68957907 -0.15079539 -1.3853413 -0.3755648
0.02055292 -0.0133432085 0.22209014 -0.4118268 -1.6059778 -1.144519 0.19555373 0.35029036
-1.397391 -0.85050416 -1.0787411 0.27418888 -0.83277553 -0.3433389 -1.2503545 -1.3726737
-0.52369815 -0.3091028 -0.18734615 -1.0288707 1.6828743 -0.28228125 -0.12778082 -0.46531364
-0.57908046 -0.10684388 0.59933054 -0.59897035 -0.64143807 -0.39593908 -0.6008652 0.30107775

conv3_down.1.running_var f4 [40]
00000000: 289f c43f cd65 7b3f 68fc 2c3f 824b 9c3f
00000010: 14cd 403f 87b1 ea3f f14a 913f d914 b73f
00000020: 35d5 c23f 1362 8f3f f3f8 663f 94c2 833f
00000030: 3064 783f d656 843f 7c67 8b3f 8813 6a3f
00000040: 5f70 923f 2839 213f 3494 773f b4b6 863f
00000050: 0119 f33f 90e2 6b3f 61a5 ce3f ab62 873f
00000060: 8495 be3f 9999 063f 098f a63f 0f75 4e3f
00000070: fd13 8140 8d82 8d3f 6454 8c3f db61 9c3f
00000080: c45e 9c3f 6114 483f dd79 c23f e977 413f
00000090: b457 fe3f e0be 733f f579 3a3f 8a7a a33f
1.5361071 0.9820221 0.6757264 1.2210543 0.75312924 1.8335427 1.1350995 1.4303237
1.5221316 1.1201805 0.90223616 1.0293756 0.97027874 1.0339 1.0890956 0.9143605
1.1440543 0.6297784 0.96710515 1.0524507 1.8992006 0.9214258 1.614422 1.0576986
1.4889379 0.5257812 1.3012401 0.8064737 4.03369 1.1055466 1.0963254 1.2217363
1.221642 0.78156096 1.519344 0.75573593 1.9870515 0.9521313 0.7284234 1.2771771

fc_mu.weight f4 [10, 1000]
00000000: 25d1 733e 092c 2b3e f34c 2d3d b185 6abc
00000010: 734f 36bb e8f1 7c3d 50cf 9ebb 4d93 ac3b
00000020: c72b fdbb 0853 8abc 8296 e8bc 7e39 023d
00000030: 8e86 113c 6d74 9ebc a480 a4bb ca03 8d3c
00000040: ebb5 33bb 04f0 633b 2966 d13c 8219 9e3b
00000050: ad57 5abd d751 4bbc e1ed 8d3c ff56 9a3c
00000060: 8339 3fbb fcfa 043c 2f94 05bd f6f5 2fbd
00000070: 90a1 09bd fd84 1ebc ee42 02bc 1c18 0b3d
00000080: ba29 d23d 246f 843b 149d 023d a9d5 c53c
00000090: a5d4 cd3d 08ba 423d d7be 4ebc 240e 19bd
000000a0: 02af 9ebb c84a 833d 0977 b4bc ecbc b63d
000000b0: 2952 5cbc 6f58 ac3b 9ee2 0dbc 07d9 be3c
000000c0: 5a9f d03c 3a36 7b3c 3945 e73b 2ce4 91bc
000000d0: e335 d93b e799 1b3d c990 eb3c 1356 f73c
000000e0: 50f9 473d d6d3 21bd 532b bcbc ddf3 3cbd
000000f0: 7ea6 3bbc f148 99bc 0c57 2d3d 5080 82bc
00000100: 0947 4e3b b608 c2bc c8d1 183c d09c 13bd
00000110: f467 2bbc c24d 20bb c1d9 c8bb a440 15bc
00000120: 6bdb 8abc e4cc 89bb 5414 583c 0c45 143c
00000130: 0eb9 19bd 763a 9f3c 1c34 a739 fe0f d4bc
00000140: aa34 1c3c 67f5 143d 1c93 bebb 15d4 a33c
00000150: a8e1 113d c203 163c de82 26bd 7fe5 ba3c
00000160: 6f08 c5bd fb24 bcbc 4172 cfbc 815b a0bc
00000170: d587 c63c 4615 f1bc e9f5 8ebc ad33 363d
00000180: 83f2 ccbb dc04 c2bc eb45 b9bc f068 d83c
00000190: f676 803c 784e edbb a144 c6bc d604 f4bc
000001a0: d052 24bc 36ce d53b f24b 0c3d 5db6 f63d
000001b0: 9fa6 343d ff96 f8bb 268a 24bc af28 723d
000001c0: 5d21 a43c 5a2e 853d 6c94 b9ba f0dc b8bc
000001d0: e53d 2f3d 79dc 87bc 9080 ffbb 0a1b 35bd
000001e0: 56d0 a9bc cda7 2ebc 5d5f fbbc 0a9a 9d3c
000001f0: 0ed9 3a3b 1c66 7a3c 9695 f13b 446b 8dbb
00000200: 0ed3 17bb 8898 523c 1b23 11be 7d1e 09bd
00000210: 82ae 5dba 91c3 203c d0f9 28bc 4318 17be
00000220: 4a57 0b3d 8c7f b13c 6147 b03b 14ba b13b
00000230: 488c 29be 94db a9bc 79e9 a03c 5da4 65bc
00000240: 7c01 eebc ea6b d2bd d06f eb3b ae61 013d
00000250: f151 43bc 5ec1 89bc 5504 8e3c c8e9 25bd
00000260: 8cb1 0ebd 3092 efbb 1549 37bd f988 06bd
00000270: a15c ddbc a15c 8ebd 9788 acbc 5aa4 b83c
00000280: 5419 abbc ad7e e3b9 7ffd 31bc f276 be3c
00000290: 05ba 1fbd fca2 9cbc 5f5e 093b 0a0e 3a3c
000002a0: 9d5d 9abc 1123 563c 1baa 0dbc 18ec ccbc
000002b0: 7211 92bc dfa9 dc3c 41a3 f63c 7d6b 82bc
000002c0: 700d 87bc 0fb8 013d 5d37 963c f7a5 16bb
000002d0: ad6c 65bd 15a8 04bc 6fa0 473d 6539 d23c
000002e0: 61b3 263d c819 40bd bcbc 8e3d cf71 0c3d
000002f0: 4ecf 65bd a507 85bc 984c 90bd 970b 94bc
00000300: 52c2 aa3b 77c0 5ebc 8c17 7e3c c28f f5bc
00000310: 73ad 283c 476b c53a 1f39 07bb 4692 4e3c
00000320: 9938 9a3d e1b3 963d 5c01 93bc 31ac af3c
00000330: 4aab bcba 0409 67bc b685 b2bc 0e15 13ba
00000340: a160 32bc 60e7 c3bc 1b7a 26be 3d5f c13b
00000350: 0c92 a83c f44f 9d39 8b95 813c 20ff 8cbd
00000360: ad0c 283c 7a5f 75bc f77c a33c 7f41 a5bc
00000370: 3393 07be 56b6 08bc 50c6 93bb 104a 8dbc
00000380: 0933 06bc d6f5 d33c 362d 4f3d 57da b63c
00000390: 04a0 d53d 3dc4 a23d 8784 a63c 3ccf 1dbc
000003a0: bb70 af3c 7663 b63c 0ca0 54bb 6554 67bc
000003b0: 927f 093c 21c9 993c 08cd 6b3d 14aa a93d
000003c0: 4d69 9a3a 95e0 54bb 86a6 11bd 1fa6 2fbc
000003d0: 6dbd fdbc bccb 1fbd fd0a 68bc 6dea 923c
000003e0: 593e 77bb 7746 00bd b94e 213c 0f3c 0c3a
000003f0: 95cd 273b d866 d33c 0670 65bc dfab 0abc
0.23810251 0.16716017 0.042309713 -0.014314101 -0.0027818352 0.061754137 -0.004846491 0.005266583
-0.007726166 -0.016885296 -0.02839208 0.03179311 0.008882178 -0.019342626 -0.005020218 0.01721372
-0.0027421664 0.0034780512 0.02556141 0.004824818 -0.05330627 -0.012409649 0.017325344 0.018840311
-0.0029178567 0.00811648 -0.032612022 -0.042959176 -0.033601344 -0.009675262 -0.007950528 0.03395854
0.10261865 0.0040415693 0.031888083 0.024149733 0.10050324 0.047540694 -0.012618742 -0.037367
-0.00484264 0.06410748 -0.022029417 0.08922753 -0.013447323 0.0052595655 -0.008659987 0.023296846
0.02546661 0.015332753 0.0070578125 -0.017808996 0.0066287383 0.03798857 0.028755562 0.03019241
0.048821747 -0.039508663 -0.022969877 -0.046131004 -0.011453269 -0.018711539 0.042319342 -0.015930325
0.0031475446 -0.023685794 0.0093273595 -0.03603822 -0.010461796 -0.002446041 -0.006129474 -0.00910965
-0.01695033 -0.004205333 0.01318844 0.009049665 -0.037529998 0.019437056 0.00031891547 -0.025886532
0.0095340405 0.036366846 -0.0058158766 0.01999859 0.035615593 0.009156169 -0.04065215 0.02281451
-0.09620749 -0.022966852 -0.025323035 -0.019574882 0.024234692 -0.02942909 -0.017451243 0.044482876
-0.0062544956 -0.023683958 -0.022616347 0.026417226 0.015681725 -0.00724202 -0.024202647 -0.029787462
-0.01002951 0.0065248264 0.034252115 0.12046502 0.044104215 -0.0075863595 -0.010042703 0.05912083
0.02003544 0.065029815 -0.0014158613 -0.022566289 0.042783637 -0.016584622 -0.0077973083 -0.04421524
-0.020729225 -0.010660124 -0.030685121 0.01923849 0.0028510722 0.015283134 0.0073725684 -0.0043157656
-0.002316657 0.012853749 -0.14173548 -0.03347634 -0.00084564846 0.009812252 -0.010313466 -0.14755349
0.034018792 0.021667264 0.005379603 0.0054237936 -0.1655742 -0.020734586 0.019642578 -0.014016238
-0.029053442 -0.10274489 0.00718496 0.031587295 -0.011921392 -0.016815837 0.01733605 -0.040506154
-0.03483729 -0.007311128 -0.04474743 -0.03284547 -0.027021708 -0.06951261 -0.021061225 0.022539306
-0.0208861 -0.00043391195 -0.010863661 0.023250077 -0.03899576 -0.019120686 0.002096079 0.011355886
-0.018843466 0.013069884 -0.008646513 -0.025014922 -0.017830584 0.02693647 0.030107142 -0.015920395
-0.0164859 0.031669673 0.018336946 -0.0022987106 -0.056011844 -0.0080967145 0.048736986 0.025662133
0.040698413 -0.046899587 0.06969592 0.034288224 -0.056105904 -0.016238997 -0.07045859 -0.018071933
0.005211153 -0.013595692 0.015508544 -0.029975776 0.01029526 0.0015061878 -0.0020633412 0.0126081165
0.075303264 0.07358528 -0.017944984 0.021444412 -0.001439431 -0.014101271 -0.021792274 -0.00056107424
-0.010887296 -0.02391404 -0.16257517 0.005901246 0.020577453 0.00030004943 0.015818378 -0.06884599
0.010256928 -0.014976377 0.019957049 -0.020172833 -0.13239746 -0.0083442535 -0.0045097247 -0.01724723
-0.008190879 0.02587406 0.050580226 0.02232091 0.10430911 0.07947586 0.020326866 -0.009631928
0.021416059 0.022264224 -0.0032444028 -0.014119242 0.008392232 0.018772664 0.05756858 0.08284393
0.001178065 -0.0032482494 -0.0355592 -0.010720759 -0.030974114 -0.039012656 -0.014162776 0.017934049
-0.003772637 -0.0313172 0.009845429 0.00053495256 0.0025604714 0.025805876 -0.014003759 -0.008463829

fc_mu.bias f4 [10]
00000000: 1563 233d 1460 89bc f657 e33a cd12 1ebd
00000010: 2407 2e3c 2e97 ccbc 13d6 b2bc e779 13bd
00000020: f5e1 c6bc ba5c 3d3c
0.039889414 -0.016769446 0.001734494 -0.03859215 0.01062182 -0.024974432 -0.021830594 -0.036004927
-0.024277667 0.011557752

fc_logsigma.weight f4 [10, 1000]
00000000: b4c7 3f3b ae02 f6bc e0ac 82bc 6daf 2cbc
00000010: cb07 46bd c300 423d a3e7 82bb 33e0 7cbb
00000020: 7215 0dbc f180 773c 99c1 fbbc 7ef1 3abc
00000030: 3a47 d33c 60a7 2d3c 74f2 d5bb f9e6 83bc
00000040: e1fb 653b aa42 163c 3a12 9d3c 75f3 16bd
00000050: 1de2 1d3d 260c bcbc 1cd8 953c 9a77 2bbc
00000060: f07f 3e3c 3789 f4b9 be7e 66bb fe72 a3ba
00000070: 1596 c4bc 89be d4bb 67d4 d5bc 890c f2bc
00000080: c547 8b3d 8ad5 65bb f734 48bb 3fe5 68bc
00000090: 1768 e3bc df7e 90bd bd77 1fbb cfc3 c13b
000000a0: e31a babc aaf3 223c 19dc 053c a9d2 87bd
000000b0: 10c6 49bb cc01 dbbc 7677 31bd 81b2 c2bc
000000c0: 760e fc3c 5a49 053b dd84 88bc db20 d13c
000000d0: 2d81 973d bf2a 6a3c 341e ffbc 9cea a93c
000000e0: 4b20 d53b b730 0cbd 0802 333d 9d3b 823b
000000f0: 7add 0f3c 3d3a a23c d408 8bbc c3dd 5a3d
00000100: 0017 323b 8cb2 1d3a 2b49 e7bc 9349 c4bc
00000110: 61fb fc3b b56d c3bb 5464 3bbc b570 d93c
00000120: 57e7 483d 0b73 b73c b350 703c dae7 0bbc
00000130: 78a2 dbbc 454a 4abc da1d 5cbc 381c bebc
00000140: 7ba8 aa3c bbc1 403c 2815 653b 2f54 7d3b
00000150: bb2d bdbc ba38 14bd edd9 f53b ad02 c5ba
00000160: 0df6 c33c 8af7 b8bc 0533 4cbc 9d29 983b
00000170: bb87 2b3d ed47 68bc 0a10 4c3b 1001 813b
00000180: f9a1 2a3d 9ffd 783c 8d46 1cbd 4a39 0cbd
00000190: 9ee7 3fbd a566 e0bb 7821 b2bc 8a17 053d
000001a0: 084f 733b 2de6 863c 0126 06bd 0c12 c23d
000001b0: 9317 f8bb 580c e0bc 5b3a 09bc 3f42 3fbd
000001c0: 2146 e9bb 19ae 86bd 0ee9 ec3c 18ac 72bc
000001d0: 37a2 fd3c b3ed 723b 8b17 22bd fede 98bc
000001e0: dfce dd3b 4ac3 683c 9f93 2fbd 4df9 01bc
000001f0: 9c32 dcbb d530 903c 8cd2 013c d6c0 e2bc
00000200: 0b6a 50bb cdd6 af3c abda 6a3d 0f14 11bb
00000210: ac2e a83c 79e8 9dbc 20ff f13b d50b 03bd
00000220: 0a7f e4bc f1df a7bc 9d56 a7bc a077 f9bb
00000230: a54a 34bd 953c 90bb 05b1 9cba ba00 313c
00000240: 9c8a c43b 117a 2e3d 3f5e b73c d3a6 c339
00000250: d896 5ebc 9f09 5ebb 89eb e9bc 95d9 3cbd
00000260: d3d4 52bc ac50 093c 2b1d 1abc 8275 e8bc
00000270: 8dc1 333a 89c9 e1bc f81b be3a 9854 263c
00000280: f97a 13bd 2f92 dabc 5728 0fbc f72d 69bd
00000290: 8dcf 35bc 2091 983c 1a6b d93c 8cce 6fbb
000002a0: db1e b0bb 4b96 dcbc 771a 893b acf2 7cbc
000002b0: bf5d 01bc f3aa c6bc f75b 9f3c 637b 1c3b
000002c0: 2ead 69bc d237 0abd bb74 f6ba 3ae9 cbbc
000002d0: 7bcb 19bd 0468 8abd d9be 403c bcf0 febc
000002e0: 5d4c 173c c4f7 673b 6d02 b8bb e8ad 2a3d
000002f0: fab0 cdbb f3e0 1c3c 95dd 0abd 6aec d8bc
00000300: 5d05 c33c a157 0cbb e2eb 61bc d2af b63a
00000310: 2838 213d f1f2 3c3d 87e9 e8ba ba6b b3ba
00000320: 541b eb3c 5f22 afb9 c8b0 c03c 3e1e 8bbb
00000330: b892 a8bb 3f95 15bc aa08 843c 2d61 623b
00000340: ef79 283c 7d43 793c 8032 fe3b 1dbb acbc
00000350: 1339 82bc 1624 40bc fb6f 623c 399b d93a
00000360: 6f63 663c 1a4b 853b 66cf 313c 14f4 7139
00000370: d77b 2e3b e791 153c 5308 af3c ac80 1e3c
00000380: a98d 48bc 2802 d8bc fd10 e73a fad2 263d
00000390: 91e1 2bbc 2497 8c3c b5fb dabc d46a 11bd
000003a0: a901 3e3c 2706 113c 9bc8 573b 5627 7dbb
000003b0: 471c 8e3c 4800 83bc 4d5c 9dbc 3c2d 083d
000003c0: edd8 b3bc 4ed6 c43c 571b fb3b 987e 9a3a
000003d0: 6c02 e8bc 7e06 dcbb f930 bfbc 36c6 4d3c
000003e0: 5237 3ebc 953a 0a3c a94d 7bbc ea57 b9bb
000003f0: 764f bf3d 8bb1 cb3c a322 473d 0c91 26bc
0.002926332 -0.030030575 -0.015951574 -0.010539872 -0.048347276 0.047364008 -0.0039948984 -0.0038585782
-0.00861107 0.015106426 -0.030731963 -0.011410115 0.0257908 0.010598987 -0.006529147 -0.016101347
0.0035092758 0.009171167 0.01917373 -0.036853272 0.038545717 -0.022955012 0.018291526 -0.010465527
0.011627182 -0.0004664154 -0.003517076 -0.0012470183 -0.023997346 -0.00649244 -0.026102258 -0.029546993
0.06800798 -0.0035069906 -0.0030549148 -0.014214813 -0.027759595 -0.07055449 -0.0024332844 0.005913235
-0.022717899 0.009945789 0.008170151 -0.06631977 -0.003078822 -0.026734255 -0.043326817 -0.023766758
0.030768614 0.002033791 -0.016664917 0.025528362 0.07397685 0.014292418 -0.031142332 0.020741753
0.0065040938 -0.034226146 0.04370311 0.0039743916 0.0087808315 0.01980316 -0.016971983 0.053434145
0.0027174354 0.000601568 -0.028233131 -0.023960864 0.0077203964 -0.005964006 -0.011437494 0.026543
0.049048748 0.022393724 0.014667678 -0.008539164 -0.02681087 -0.012346809 -0.013434852 -0.023206815
0.02083229 0.011764939 0.0034955237 0.0038654914 -0.023093095 -0.03618691 0.0075027854 -0.0015030705
0.023921037 -0.022578973 -0.012463336 0.0046436326 0.04187749 -0.014177305 0.003113749 0.0039368942
0.041658375 0.015197187 -0.03815322 -0.034234323 -0.046851747 -0.0068481737 -0.021744475 0.03249315
0.0037125964 0.016467178 -0.032751087 0.094760984 -0.0075711696 -0.027349636 -0.008375729 -0.046694037
-0.0071189557 -0.06576175 0.028919723 -0.014811538 0.03096114 0.003706795 -0.039573234 -0.018661018
0.0067690457 0.014206717 -0.04286539 -0.007932973 -0.0067199003 0.01760141 0.007923733 -0.027679842
-0.0031801488 0.02146473 0.057337444 -0.00221372 0.020530067 -0.01927589 0.0073851496 -0.031993706
-0.027892608 -0.020492526 -0.020427043 -0.0076131374 -0.0440165 -0.004401753 -0.0011954611 0.010803396
0.005997969 0.04259688 0.022383807 0.00037317592 -0.013585769 -0.0033880246 -0.028554695 -0.04610594
-0.012868124 0.00838105 -0.009406368 -0.028376345 0.00068571494 -0.02756192 0.0014504185 0.010152005
-0.036005948 -0.026681034 -0.008737645 -0.0569286 -0.011096847 0.018623888 0.026540328 -0.0036591617
-0.005374772 -0.026927134 0.004184063 -0.015438717 -0.007895886 -0.024251437 0.019453032 0.0023877255
-0.014262481 -0.03374464 -0.0018803099 -0.024891485 -0.03754757 -0.06758121 0.011764252 -0.03112065
0.009234515 0.0035395483 -0.0056155236 0.041669756 -0.0062772008 0.009575116 -0.033902723 -0.026479919
0.023806268 -0.0021414536 -0.013789149 0.0013937897 0.039360195 0.046130124 -0.0017769792 -0.0013688721
0.028699555 -0.0003340421 0.023521796 -0.0042455485 -0.0051444434 -0.009129821 0.016117413 0.0034542785
0.0102829775 0.015213844 0.007757485 -0.021085316 -0.015896356 -0.011727354 0.013820644 0.0016602046
0.014061793 0.0040677907 0.01085267 0.00023074477 0.0026624107 0.009129024 0.021366274 0.009674232
-0.012240806 -0.026368216 0.0017628964 0.040728547 -0.010490791 0.017161913 -0.026731351 -0.03550227
0.0115970755 0.0088515645 0.0032925967 -0.0038628182 0.017347468 -0.015991345 -0.019209052 0.033246264
-0.021954024 0.02402797 0.0076631713 0.0011786995 -0.028321467 -0.006714641 -0.023338782 0.012559464
-0.011609869 0.008436819 -0.01533834 -0.005656232 0.09341328 0.024864933 0.048617017 -0.010166418

fc_logsigma.bias f4 [10]
00000000: 4cbf 29ba 5ad9 54bc be96 19bd 9439 2bbd
00000010: 6ca1 61bd c4d5 69bd e89d 03bd 55c4 b9bc
00000020: 184a e8bc bf85 96bc
-0.0006475344 -0.012991274 -0.037497275 -0.041802958 -0.055085585 -0.05708863 -0.032133013 -0.022676626
-0.028355643 -0.018374322

fc2.0.weight f4 [1000, 10]
00000000: 8672 89bd 3891 77bd fb69 743e 34ba 7b3e
00000010: 774a 843e 9be9 51be 962e ddbd 70a6 8a3e
00000020: 3fac 54bd ec36 9cbe 7c66 cfbd d5d8 5e3e
00000030: 1e6c 933e 4c78 943e 2c6b 043e ace1 94bd
00000040: 54b8 aabd 3a28 ae3d 6e9d 49be eb20 403e
00000050: 424e 79be ee58 9cbd 7388 cb3d b2c7 223e
00000060: 6f5b 55be a250 7b3e af96 28be 743b b9bd
00000070: b2e6 7c3e d83d c03d 4bfd 0e3e c2fb 9ebe
00000080: 2233 b83e 7fd2 973e d955 413e fe30 a2bc
00000090: 2cb3 24be 9589 563e 31c3 ff3d 12da b53e
000000a0: cf64 08be 03f0 3f3b 3574 3cbe 9a30 97be
000000b0: 7794 a53e 9057 083d 1058 583d 4a8f 9a3e
000000c0: 428d 35be 9f25 3e3e 5e69 7a3d 20cf 513d
000000d0: 0ae4 94be bcb6 b3be 76b8 13be a330 053e
000000e0: 4e9e 393e 0ab2 c6bd c24e b13e a939 e1bd
000000f0: 8116 7cbc 0122 3abe 9604 00be fd2b 64bd
00000100: 764e ca3d 9805 a7bd 7888 8bbe c032 efbd
00000110: 9635 93bd f290 59be 50df 4dbd a46a d6bd
00000120: 9f8f 463e 2ce3 76bd 3944 02be 4361 a43d
00000130: 0f0b ff3d 588d 16be 44de babe 3224 edbd
00000140: dbeb 563d 68ba 0dbe e592 31be 0790 2fbe
00000150: 9e8c e93c e4b4 113d f936 64be 52ac 0d3d
00000160: 823e 113e 0767 dabd a1b5 8abc 6228 1d3e
00000170: d789 be3c 7f35 453e f9c3 d63b b3fc 983d
00000180: 9e90 493d 3a2b 24be ed54 233c b9b8 04be
00000190: 6d00 553d 374c dcbd 0ab4 71be da87 173e
000001a0: fc5a 8cbe 15d2 0b3e d7d2 423e efcd b4bd
000001b0: 93c1 bd3e 0fe1 61be 12a7 cabd 7f18 bb3d
000001c0: 7389 853e 7edb 30be b3c3 31bd 1dc6 883d
000001d0: bed8 0a3e 150a 143d 5d4e 57be 7cb4 d13d
000001e0: 95a4 403e 78bc b9bc d46e 0dbd 527c 8abe
000001f0: 30b1 3fbe a297 593d 4e20 f33d dcd7 283d
00000200: 32cb 893c 2337 06be dbd9 ecbc 3450 9dbd
00000210: e11e 013e 0190 02be 1d9c 9abe 597d 873d
00000220: d777 09be 5c83 b2be 1cb6 ad3e b3f0 0e3e
00000230: 938c cdbd 6f94 1b3e c319 9e3b 4045 45be
00000240: f174 60bd 3d21 153e fda1 47be 5d41 fd3c
00000250: fcdf fe3d 7602 883d 4ae1 54be 97fa 83be
00000260: 3c44 993e 58bd f6bd ee12 6abe d51f 78be
00000270: ae31 80be 6fb1 49be 1813 ae3d 4ceb 393c
00000280: 7424 363e 4c2e a1bd f4ad 9e3b afdf 493c
00000290: 5fa1 4abe 78db 4a3e d73d 54be 34df 25bd
000002a0: 587f 2a3e d375 97be 5f72 88be a84c f5bd
000002b0: f33b a6be 8b14 aebe eba7 423e f274 2d3d
000002c0: d94a fabd 1407 233e 368b 2ebe f54a febd
000002d0: 9633 703e 6940 fd3d 4d9c b1bc 3ec5 f83c
000002e0: fd39 96be b94e 4dbe 81a4 033e 6dbf c1bd
000002f0: ce2f 8c3e 0dc7 6abe 2aa2 a2bd 5c28 9f3e
00000300: 84b3 483d 4d19 883e d237 8d3e 3153 2e3e
00000310: f4f7 e23b fc71 e73d 9d53 55bd e7d6 13be
00000320: 6235 6bbe cbac 5c3d d1f1 0f3e 4423 76bd
00000330: 031e 22bc 2972 383e 52e5 f03d 2fb6 17bd
00000340: 82e9 d93d 949e 663e a4ea 72bd c0d8 533e
00000350: 8a4a 52be d504 86be f82d 87be 7648 693e
00000360: e91d 2dbe 25d7 8dbc 8eae 3d3e ac07 333d
00000370: 414d 45bd f96d 0bbe 863c e1ba 2869 1dbe
00000380: 3003 e7be f332 903d 7f37 f03c 0f7f 06be
00000390: 6629 ba3d c2fc 343e 011e 463c 45ff aa3c
000003a0: 208e 4fbe 36d6 2e3d 54a5 c8bd 29d8 133c
000003b0: 01e3 7abd 8c90 893e a4be 64be ebf8 333d
000003c0: 543c c3bd 3082 79bd b898 0bbb a311 633c
000003d0: aaaf 953e b491 c83d 373a 7ebd 4d41 073e
000003e0: c053 03be c564 08be dbca dbbd 38a2 66be
000003f0: a0e2 8cbe b3d9 d6bb 4664 f9bc 15da 213d
-0.06711297 -0.060441226 0.23868553 0.2458275 0.25838062 -0.2049927 -0.10799901 0.27080107
-0.05192208 -0.30510652 -0.10126969 0.21762402 0.28793424 0.2899803 0.12931508 -0.07269606
-0.08335939 0.08503766 -0.19688961 0.18762557 -0.24346259 -0.076341495 0.09938135 0.1589649
-0.2083566 0.24542478 -0.16463731 -0.09044543 0.24697378 0.09386796 0.13963811 -0.3105145
0.3597651 0.29652783 0.18880405 -0.019798752 -0.16083974 0.20950921 0.12488402 0.35517937
-0.13319705 0.0029287345 -0.18403704 -0.29529268 0.32339832 0.03328663 0.052818358 0.30187446
-0.17729667 0.18569039 0.061135642 0.05122292 -0.2908023 -0.35100353 -0.14425835 0.13006835
0.18126795 -0.09701927 0.346304 -0.10997326 -0.015386225 -0.18177034 -0.1250175 -0.055706013
0.098782465 -0.08155364 -0.27252555 -0.11679602 -0.07187955 -0.21246698 -0.050261796 -0.10469559
0.19390725 -0.06027524 -0.12721337 0.08026364 0.12453281 -0.14702356 -0.364977 -0.11579169
0.052471023 -0.1384064 -0.17341192 -0.17144786 0.028509434 0.0355729 -0.22286595 0.034588166
0.14184001 -0.10664182 -0.01693231 0.15347436 0.023259087 0.19258688 0.0065541235 0.074700736
0.049210183 -0.16032115 0.009968978 -0.12961091 0.05200236 -0.10756724 -0.23603836 0.14797917
-0.27413166 0.13654359 0.19025742 -0.08828341 0.37061748 -0.2205851 -0.098951474 0.09135532
0.26081428 -0.1727123 -0.043399524 0.06678412 0.13559243 0.036142427 -0.21025987 0.10239503
0.18812783 -0.022672877 -0.034529522 -0.27047974 -0.18719935 0.053123124 0.11871396 0.041221485
0.016820524 -0.1310697 -0.028912475 -0.07681313 0.12609436 -0.12750246 -0.3019723 0.06615705
-0.13424622 -0.34865844 0.33928 0.13959007 -0.10036578 0.15193342 0.0048248484 -0.19264698
-0.054799024 0.1456346 -0.19495387 0.030914957 0.124450654 0.066410944 -0.20789066 -0.25777122
0.2993487 -0.12047833 -0.22858784 -0.24230893 -0.25037903 -0.19696592 0.084997356 0.011347603
0.17787343 -0.078701586 0.004842514 0.012321397 -0.1978812 0.19810283 -0.20726715 -0.040496066
0.1665014 -0.2958208 -0.26649758 -0.11977512 -0.32467613 -0.34000048 0.19009368 0.042347856
-0.12221307 0.15920669 -0.17045292 -0.12416641 0.23457178 0.12365801 -0.021680975 0.03036749
-0.29341117 -0.20049562 0.12855722 -0.0946034 0.27380222 -0.22927494 -0.079410866 0.3108548
0.048999324 0.26581803 0.2758165 0.17023923 0.006926531 0.11301038 -0.052081693 -0.14437447
-0.22969583 0.053875726 0.1405709 -0.060092226 -0.009894851 0.18012299 0.117624894 -0.03703898
0.10640241 0.2252143 -0.059305802 0.20688152 -0.20536247 -0.26175562 -0.2640226 0.22781548
-0.16905941 -0.017314503 0.18523619 0.04370849 -0.04816938 -0.1361617 -0.0017184175 -0.15372145
-0.4511962 0.07040968 0.029323338 -0.13134407 0.090899274 0.17674544 0.012092114 0.020873675
-0.2026906 0.042684756 -0.09797159 0.009023705 -0.061251644 0.26868093 -0.22338349 0.04393856
-0.09532991 -0.060915172 -0.0021300744 0.013859185 0.29235584 0.09793416 -0.062067237 0.13208504
-0.12824917 -0.1331969 -0.10732051 -0.22522819 -0.2751665 -0.0065567135 -0.030443322 0.03951462

fc2.0.bias f4 [1000]
00000000: e2e6 7a3e 3ff0 44be e575 483e 4367 7b3c
00000010: a3e2 4ebe 137f fc3d ba2e 86be b6dc 483e
00000020: 6916 b7be 36db 9e3d 376c 8a3e 6214 c5be
00000030: 3908 aabe 7a50 c53e aebe 443c a353 b0be
00000040: f037 ce3d f170 49bd 3195 463e 1697 99be
00000050: 2077 723e 7cf6 133d ac07 77be 185b 303e
00000060: 4200 9cbd d489 1fbe 9a0e 81be da6c 463e
00000070: 7b1f a83e 1a6a ddbd 0f5b ab3e 3912 2ebe
00000080: b10d ca3e 9c04 073e 2908 fd3b 0061 463e
00000090: ab91 9e3e 6b18 8bbd 7c7f 18be ced5 833e
000000a0: a865 9dbd 4233 953e 09ef efbc 1ae9 c63e
000000b0: b584 293e 8566 48bc 61e8 9fbd 74a8 fd3e
000000c0: 1199 f3bd cac8 bdbc 746d 913d b869 05bd
000000d0: 579a 3e3e 0b78 7abe 359e a4be 230d 22be
000000e0: 776a 053e 07f2 76be f513 293e 3ded 153e
000000f0: ce5f 1cbe 2d3d 84be 8a79 0b3e 40a1 af3e
00000100: e781 9c3e afbf b7bd 2769 223e d2f1 8e3e
00000110: 8dbf 073e 4cf1 bdbd 4c42 82be 47f1 a63e
00000120: 2588 3d3e c982 b93e 24fb 06be f202 523e
00000130: 6112 72bd bbd9 81be 5ae7 98be cda3 89be
00000140: b80d 89bd f7c9 133e cc07 263c 0d85 a03e
00000150: 0746 a73e 2c66 98bd f735 63be d8b3 48be
00000160: 595b 6a3e eb88 293d cec5 29bd f2e9 1cbd
00000170: c19a 863d 0c65 1dbe bb31 c6bd 36bf 863e
00000180: ecfa 14be 3a76 40be bb30 303e bb79 72be
00000190: af49 e1bc 1279 2bbd 6813 cb3e d327 c33d
000001a0: 024d 8fbd 07ba 9ebd 7dd2 403e 1a7c c7bd
000001b0: 8d1c 5e3e 7f95 83bd 4523 1bbd d21a d3be
000001c0: 07a7 e83e 5926 20bc 60f8 54be 2847 babc
000001d0: 4781 8b3e 120f b63e 4626 793e 8b87 d5be
000001e0: fafd 68bd c08c 4cbe 7ca5 84be 3962 463d
000001f0: 6f3a bd3e 4949 bd3e 3039 893e f018 c6be
00000200: 88a1 c8be 4623 a13d 1155 603e 64e3 15bd
00000210: 2dfc b3be 2895 a83e add7 1dbe 2e15 b13d
00000220: 709a 3b3e b3de 08be 90f0 8dbe 242f 25be
00000230: 2971 8d3e a22a 91bd ab25 dfbd 3168 5dbe
00000240: ea00 67be 359a 92be e79e c9bc dcb4 83be
00000250: acd5 283e 0156 62be 0cf6 963e cf0c 513e
00000260: 24b0 68bd 04f4 3a3e 02c9 4e3d 7bb3 843e
00000270: be02 14bf 5000 82be aa27 34be 9c64 933e
00000280: bed1 a4bc e595 52bd 00c1 14bc 7ad3 7b3e
00000290: 783a 2a3e bef5 35bd dd6f ed3d eaa3 aa3d
000002a0: 2a5c 2d3d e215 2e3d bc7c 553e 269b c4be
000002b0: c275 91be fa72 b93e 25a7 cd3e 246e e1be
000002c0: 68fa edbd d840 95bc cdfa 8b3e 258e 99be
000002d0: 383c d33d 932a f03d 6c28 71bd cde5 f5bd
000002e0: 051c 873d 84b8 ea3d 8310 84be 956d 92bd
000002f0: 2c8e aa3e dac7 69be 7a41 8f3e 4e6c c23e
00000300: 219a cd3e 1bb7 a13e 1ad4 78bd 5216 adbe
00000310: 5da3 88be 38a6 abbe 1018 2c3e 9bb5 9b3d
00000320: 651e 903d 2f3b 86be 247b 8f3d e3fe adbd
00000330: 2f6f 9fbe 278a 0cbe 4840 bdbc 6fe3 64bd
00000340: 6e5a c83e 53e1 b13e 34e0 9a3c 2ae6 fbbc
00000350: c477 9a3e ec1e f23d 39fc 213e 6933 59be
00000360: 49d6 363e 05c1 c2bc e2d2 903e f5c1 c2bd
00000370: f98b a23c eb91 0fbe d3d1 373e 116b 1ebe
00000380: a1de ac3e 3ae5 533e 94ff c53e 26d8 f4bd
00000390: 1498 a63e 0de7 003e fd56 4bbd 48be 573e
000003a0: 3dec 433e baca e73e 2746 50be afd7 0ebe
000003b0: 48b8 0dbd b03b 6bbe 9f15 623e f742 133e
000003c0: 06fe f3be 82ec b63e 70ee c83d 8339 1e3e
000003d0: 11b5 763b 4aa5 d93d d5e4 c63d 1108 90bd
000003e0: 3afd 163e ebce 433e 6367 3f3e 6f63 f1bd
000003f0: a837 4c3e 7c5f 8fbd 9345 84bd 0746 53be
0.24502137 -0.19232272 0.19576223 0.015344444 -0.20203643 0.12328925 -0.26207525 0.19615445
-0.35759285 0.07756655 0.27035686 -0.38492113 -0.33209398 0.3853796 0.012008352 -0.3443881
0.10069263 -0.049179975 0.1939285 -0.29998082 0.23678255 0.036123738 -0.2412402 0.1722225
-0.07617237 -0.15579921 -0.25206453 0.19377461 0.32836518 -0.10811253 0.3346791 -0.16999139
0.3946357 0.13185352 0.00772192 0.1937294 0.3097051 -0.06791767 -0.14892381 0.25749058
-0.07685405 0.2914067 -0.029288786 0.38849717 0.1655453 -0.012231474 -0.07807995 0.49542582
-0.118944295 -0.023167033 0.07100955 -0.032571524 0.18613563 -0.24459855 -0.32151952 -0.15825324
0.13028894 -0.24115764 0.16511519 0.1464128 -0.15270922 -0.25827923 0.13620582 0.3430271
0.30567858 -0.089721076 0.15860425 0.2791887 0.13256665 -0.09274539 -0.25441206 0.32605955
0.18508966 0.36232594 -0.1318174 0.20508936 -0.05909956 -0.25361428 -0.29864007 -0.26882783
-0.0669207 0.14432512 0.010133695 0.3135151 0.32670614 -0.07441363 -0.22188555 -0.19599855
0.22886409 0.04139034 -0.041448407 -0.038309045 0.06572486 -0.15370578 -0.09677454 0.26317757
-0.14548844 -0.187951 0.17206089 -0.23679249 -0.027500955 -0.04186351 0.39663243 0.0952908
-0.0699711 -0.07750326 0.18830295 -0.09740467 0.21690579 -0.064249985 -0.037875433 -0.412314
0.45439932 -0.009774768 -0.20797873 -0.022739008 0.27247068 0.35558373 0.24331006 -0.41704974
-0.056882836 -0.19975567 -0.25907505 0.048433516 0.36958644 0.36969975 0.26801443 -0.386909
-0.3918574 0.07868056 0.2190745 -0.03659381 -0.35153332 0.32926297 -0.15414305 0.08646618
0.18320632 -0.13366203 -0.27722597 -0.16131264 0.27625397 -0.0708821 -0.108958565 -0.21621777
-0.22558942 -0.28633276 -0.024611903 -0.25723922 0.1648776 -0.2210312 0.29484594 0.20415042
-0.056808606 0.18257147 0.050484665 0.25918183 -0.57816684 -0.25390863 -0.17593256 0.28787696
-0.020119544 -0.05141248 -0.009079218 0.2459239 0.16623867 -0.04442381 0.11593602 0.083320454
0.042324223 0.042501338 0.20848364 -0.3839962 -0.28410155 0.36220533 0.40166584 -0.44029343
-0.11620027 -0.018219396 0.27339783 -0.2999126 0.1031422 0.117268704 -0.05887644 -0.12006722
0.06597141 0.11460975 -0.25793847 -0.07149807 0.33311594 -0.22830144 0.27979642 0.37973255
0.40156654 0.3158501 -0.06074915 -0.33806092 -0.26687136 -0.33525252 0.16806054 0.07602998
0.07037047 -0.26217028 0.07005909 -0.084958814 -0.31139514 -0.13724576 -0.02310194 -0.05588096
0.39131492 0.3474222 0.018905737 -0.0307494 0.301695 0.11822304 0.15818872 -0.21211018
0.17855181 -0.02377368 0.2828589 -0.095096506 0.019842135 -0.14020507 0.17951135 -0.1547053
0.33763602 0.20692912 0.38671553 -0.119552895 0.325379 0.12588139 -0.049643505 0.2106868
0.19133087 0.45271856 -0.20339261 -0.13949464 -0.034599572 -0.22971988 0.2207856 0.14381014
-0.47654742 0.35727316 0.09811103 0.15451626 0.0037644545 0.106272295 0.09711615 -0.070327885
0.14745036 0.19121902 0.18691783 -0.117865436 0.19943106 -0.07000634 -0.06458583 -0.20632182
